app/src/main/assets/model_with_softmax.tflite (tflite, 643508 bytes, 3 tensors)

arith.constant f4 [11, 16]
00000000: 33ac 99bf 5f1d b43f f718 b6bf ad94 dabf
00000010: 4b7d d23f 0301 8e3f 72d5 abbf 9e99 a83f
00000020: e399 da3f 20e3 b7bf d62a 8d3f 6d98 0c40
00000030: 88bf d63f 616e ba3f f59f eebf f6d2 f1bf
00000040: 4a7c 97bf bb79 9bbf 2295 aabf 36f6 dbbf
00000050: fea0 bf3f 2810 523f 9b01 e13f ef49 06c0
00000060: db83 adbf e471 943f a6eb babf 8965 edbf
00000070: c189 debf af68 80bf 7c1f ecbf 93b0 cabf
00000080: aa05 0940 aa13 9f3f 5259 bbbf 6fd2 d5bf
00000090: d068 b33f 15e3 903f ee61 adbf 2950 ba3f
000000a0: 03b3 dcbf 3999 be3f b73d 8b3f 7454 dcbf
000000b0: 1054 c7bf ba65 a3bf 7133 a63f 13f1 e53f
000000c0: b404 a6bf 497f d23f 724e b03f c49e ee3f
000000d0: b7e1 dbbf b803 eabf 87c7 c8bf b3ea be3f
000000e0: 10d7 d03f ce6e c83f f1d8 ad3f d886 0e40
000000f0: 7f02 f5bf 80f0 c83f f072 e7bf 21ed d9bf
00000100: 6102 b1bf cadb 99bf 4dd7 ae3f 9dbf f03f
00000110: 80b8 c63f 83a6 c9bf dedc ea3f 385a f7bf
00000120: c732 f73f be98 b43f 3071 d1bf b572 0c40
00000130: 09b9 d83f 3eb1 b1bf 44a4 ac3f 913e f7bf
00000140: e146 a4bf b31a c3bf 219e 9b3f a50c d13f
00000150: 9d2a aabf 3fe5 c1bf 8bb7 a5bf f647 0ac0
00000160: a1c3 d33f f856 c2bf 934d 9e3f 4248 fabf
00000170: acf4 a13f 3b49 d23f 3ba6 883f 7ef6 d63f
00000180: b880 0340 e9bc a5bf bb04 c2bf 9a93 db3f
00000190: af5f ccbf 2127 953f d96e d0bf 9999 b43f
000001a0: c0da cebf ed8e b73f b46e c3bf 5c80 ebbf
000001b0: b134 ba3f 3b85 9fbf 1593 913f acd8 ddbf
000001c0: b2cc a2bf 1112 c83f 9549 b43f 4b1e c33f
000001d0: 8d6c d7bf 8791 9c3f e94b e13f 48d1 b13f
000001e0: c1e9 d6bf ff1c dabf d138 9b3f 3052 e7bf
000001f0: 297b fabf 17c3 a1bf 40e8 8b3f b583 dcbf
00000200: d2e0 9cbf 5bcc a6bf b260 a73f f6f1 e23f
00000210: b12d debf 981c b43f 9a2d de3f 6da4 d53f
00000220: 538d eabf 32fc c73f c32f cfbf 9513 06c0
00000230: 220c d83f f30d a8bf 938c b53f 7caf 0740
00000240: df5c 1240 d33f c03f fd3a b23f 2254 eabf
00000250: 0bc5 d4bf 5908 ac3f ead2 ec3f 0e38 f0bf
00000260: c838 903f 26ae c3bf fc05 cbbf be14 0140
00000270: d122 fabf 6424 c23f 29a2 efbf 17a3 f43f
00000280: efb6 afbf 72b2 b73f 3f07 bebf 4ce3 f3bf
00000290: 619d d83f 0697 d4bf d21a bcbf 1849 be3f
000002a0: eec7 e03f 8b17 c7bf eea7 a53f be12 0440
000002b0: a308 d83f 3f80 ca3f 204b af3f 5ceb f53f
-1.2005676 1.4071463 -1.4226369 -1.7076622 1.6444486 1.1094059 -1.3424513 1.317188
1.7078212 -1.4366188 1.1028697 2.1968033 1.6777201 1.4564935 -1.8642565 -1.8892505
-1.1834805 -1.2146524 -1.3326762 -1.7184513 1.4971006 0.820559 1.7578615 -2.0982625
-1.3555864 1.1597257 -1.4603164 -1.8546611 -1.7385789 -1.0031947 -1.8447108 -1.5835136
2.1409707 1.2427876 -1.4636633 -1.6704844 1.4016361 1.13193 -1.3545511 1.4555713
-1.724213 1.489051 1.0878209 -1.7213273 -1.5572529 -1.276542 1.2984449 1.7964195
-1.2970185 1.6445094 1.377394 1.8642201 -1.7178258 -1.8282385 -1.5685891 1.4915375
1.6315632 1.5658815 1.358183 2.2269802 -1.9141387 1.5698395 -1.8081951 -1.7025491
-1.3828851 -1.2020199 1.3659455 1.8808476 1.5525055 -1.575394 1.8348653 -1.9324408
1.9312371 1.4109113 -1.6362667 2.1945012 1.6931468 -1.3882215 1.348763 -1.9315969
-1.283413 -1.5242523 1.2157632 1.6331984 -1.3294255 -1.5148085 -1.2946638 -2.1606421
1.6544076 -1.5182791 1.2367424 -1.9553301 1.2652793 1.6428598 1.067573 1.6793973
2.0547314 -1.2948276 -1.5157694 1.715442 -1.59667 1.1652566 -1.6283828 1.4109374
-1.6160507 1.4340492 -1.5268159 -1.8398547 1.454733 -1.2462534 1.1373011 -1.7331748
-1.2718718 1.5630513 1.4084955 1.524362 -1.6830002 1.2231911 1.7601291 1.3891993
-1.6790086 -1.7040099 1.2126714 -1.8071957 -1.9568835 -1.2637662 1.0930252 -1.7227694
-1.225611 -1.3031114 1.3076384 1.7730091 -1.7357694 1.4071226 1.7357666 1.6690804
-1.8324379 1.5623839 -1.6186451 -2.0949452 1.6878703 -1.3129257 1.4183525 2.1200857
2.2869184 1.5019478 1.3924252 -1.8306925 -1.6622633 1.3440048 1.8501866 -1.8767107
1.1267328 -1.5287521 -1.5861201 2.016891 -1.9541875 1.5167356 -1.8721362 1.9112271
-1.3727702 1.4351332 -1.4845961 -1.905374 1.6923028 -1.6608589 -1.4695685 1.4866056
1.7561014 -1.555406 1.2941873 2.063644 1.6877636 1.5820388 1.3694801 1.9212451

arith.constant3 f4 [10001, 16]
00000000: 67d3 ce3c 677f 943d 9a7a 803c 3a7a c03b
00000010: 3966 7a3b 7ec5 9abc e8f1 0ebc 2787 84bc
00000020: 2290 c4bb e6e2 67bc d0b2 dcbc 6aa3 213c
00000030: be33 73bd b1cf aebc 490e 21bd 7e92 113c
00000040: 13cc 41bd b78e 373d e82f dfbb 37d6 053d
00000050: 00f6 25bc 68f1 b3bb 9a29 f4bc 8dee 0c3d
00000060: 1d5a 473d 8465 703c e2a4 953c 5004 c2bb
00000070: 6df6 113d 52ad e33c 6844 13bc 8068 dd3b
00000080: bce5 b0bd 1246 5ebd 5e03 7ebd cbab 253d
00000090: 975d 8abc 89bd 0dbc 09d0 d13c ff32 d13c
000000a0: 8d18 42be f927 613d 60e1 e43d 5836 57be
000000b0: 9c91 bdbd abf5 5fbd dea7 a73d c5e4 c4ba
000000c0: dac6 073d b24e 2c3e 66fc 563e b743 353e
000000d0: 143a 37be bc93 e1bd f3a8 433c 06f1 ecbd
000000e0: ddee be3d 1d4a 00be 6fd2 013d e4a6 4a3e
000000f0: a617 d6bd 1f28 123e e7a1 f7bb 2ac8 fb3d
00000100: c60a aebd 3f04 013e 49e2 08be 634f 8abd
00000110: 7d27 b43e 3022 fe3c cd22 a73d 2762 823d
00000120: 4b1a d4bc 8eec 50be 6b4b 3c3e ff5c d63d
00000130: 6be2 173e aa4e 0fbe ee59 0c3e cd82 83bd
00000140: 9379 443d 2204 d83d 87a9 4e3d 4b60 a63d
00000150: 6f03 1ebe b272 d03d cda8 28bc 5c39 263e
00000160: f10f 8fbe 9bae 273e 1964 66bd 7f8e 0abe
00000170: bdb0 cebd 9fcd febd d4b0 88bd 0c40 24bc
00000180: 621b 853d 6c80 d73d dacd 34bd 9981 33bc
00000190: c0d1 8c3c 866b c6bc 23da 783b 38a5 ab3d
000001a0: 05d7 5e3d fa60 943d 9e22 05be 1941 7d3e
000001b0: 3650 9c3d 4319 7a3d ccf4 60be d32f 1e3d
000001c0: 604f 3d3f ff3a f63e 700e c93e 65a5 17bf
000001d0: 9090 cdbe c89d 023f 870f 013f f98c bbbe
000001e0: cb3c 48be 3690 54be 6bf5 bfbe b189 663e
000001f0: 547b 37bf c229 b03e 32f3 cbbe 6049 163f
00000200: 70d4 193f 1c51 febe 0051 1abf b2e2 5d3e
00000210: 1f6e d6be 75ae c03e 1009 debe 6e86 bc3e
00000220: 319e 01bf b7ba ab3e 5ce2 0abf d140 c1be
00000230: 5448 a93e a50c d4be ec0d 4b3e 0ece b0be
00000240: 078f 9dbb 587c 93bd 7a06 75be 21fc 2fbe
00000250: 7554 773d 7e0d eb3d 2ecb 59bd b00a 723d
00000260: 0b00 993d d134 1abe 9ee6 663d 2e3b 8fbd
00000270: b6e9 6c3e fc2b 693d 70b9 80bd 5785 94bd
00000280: 54ff 83bd bad3 1fbd 4690 07be 8329 04be
00000290: aace 333d b6c5 063e 4d13 80bd 6a6a dfbc
000002a0: 0832 bb3d a162 18be bba6 3d3d 6262 733d
000002b0: 5f04 753e cbb6 7c3d 7f17 55bd 87c6 7bbd
000002c0: 6321 aabd 7806 5ebc e9c9 56be 8d03 80be
000002d0: 9348 a23d b536 8a3d 7848 103a 1c10 25bd
000002e0: dc6e 343c 56c6 36be 01c3 f83c bc51 b2bd
000002f0: d568 803e e850 003e 1161 063c f63d 07bd
00000300: cc0b 85bd e222 fa3b c637 08be ade6 fdbd
00000310: f186 eb3d 5f30 d33d 44bb 38bd 258a 923d
00000320: dc8a 9c3d 6696 01be 8453 223d 6e7c 973d
00000330: 7996 8d3e a418 823d f7cc c6bd e2c2 e5bc
00000340: 80a2 a6be 1e66 0bbe 90dc f63c 8970 f93d
00000350: 8865 353e 9a68 79be 6735 003e f416 18bd
00000360: 7d79 d53c 9f4a 973d 9b2f 16be 9691 95bd
00000370: 7d6c e13d fc88 69be c9a8 243d e9b0 01be
00000380: 115b 843d 84fe 153d 06ed d33d f375 abbc
00000390: 8cda 33bc 0d0d 883d 0620 923d ad57 323d
000003a0: 5e0f 17bd b4c1 4fbe 2193 103b db64 4dbd
000003b0: 5f51 de3d 1c18 8bbd 62f3 a03d a4a4 ec3c
000003c0: f28f f9bc eb83 173d 2b15 a53d 28a3 4fbd
000003d0: f7c9 9d3d 30a3 9a3c f18e f53c 2a7c e93c
000003e0: 35b6 393d 0a27 89be cfdb 18bc 901e 8bbb
000003f0: b561 cd3d 361d 15bd cdcc 0a3e bd4d 8039
0.025247289 0.072508626 0.015683461 0.0058739455 0.0038207902 -0.018893 -0.008724667 -0.016177727
-0.0059986273 -0.014153218 -0.026940733 0.009865621 -0.059375517 -0.02133927 -0.039320264 0.008885024
-0.04731376 0.044813838 -0.006811131 0.032674994 -0.010129452 -0.0054914244 -0.029804993 0.034407187
0.048669923 0.014672641 0.018267099 -0.0059209242 0.0356354 0.027792607 -0.008988477 0.006756842
-0.08637568 -0.054266043 -0.06201493 0.040447038 -0.01689033 -0.008651146 0.025611894 0.025537012
-0.18954678 0.05496976 0.11175799 -0.21016824 -0.092562884 -0.054677647 0.08186315 -0.0015021792
0.033148624 0.16826895 0.2099472 0.17701612 -0.17893249 -0.11014506 0.011942136 -0.11569409
0.09322903 -0.12528272 0.031694826 0.19790226 -0.10453729 0.14273117 -0.007557142 0.12294038
-0.084981486 0.12599276 -0.13367571 -0.06753423 0.35186377 0.031022161 0.081609346 0.06366377
-0.025891444 -0.20402738 0.18388145 0.10466956 0.14832465 -0.13994852 0.1370618 -0.06421433
0.047967505 0.10547663 0.050454643 0.08123835 -0.15430997 0.101781264 -0.0102941515 0.16232818
-0.2794185 0.163752 -0.056247804 -0.1353092 -0.10092304 -0.12441563 -0.06674352 -0.010025036
0.064993635 0.105225414 -0.044141628 -0.010956191 0.01718986 -0.024221193 0.0037971816 0.08381122
0.054404277 0.07245059 -0.13001487 0.24731864 0.076324865 0.061059248 -0.21968383 0.038619827
0.7394924 0.48091885 0.39268827 -0.5923675 -0.40149355 0.51022005 0.5041432 -0.3663099
-0.1955444 -0.20758137 -0.37491927 0.22513463 -0.7167256 0.3440686 -0.3983398 0.5870571
0.6008978 -0.49671257 -0.60279846 0.21668509 -0.4188089 0.376331 -0.4336629 0.36821312
-0.50632006 0.3354089 -0.54251647 -0.37744763 0.33062994 -0.41415897 0.1982953 -0.34532207
-0.00480831 -0.07201451 -0.23928252 -0.17186023 0.06038328 0.11477183 -0.053172283 0.059092224
0.07470711 -0.1505921 0.056372277 -0.069937095 0.23136029 0.056926712 -0.062853694 -0.07251995
-0.06445184 -0.039020278 -0.1323863 -0.1290646 0.043898262 0.13161358 -0.06253681 -0.027272422
0.09140402 -0.14881374 0.046301585 0.059419997 0.23927449 0.061697762 -0.05202436 -0.061468627
-0.08307149 -0.013551347 -0.2097546 -0.2500271 0.07923999 0.06748716 0.0005503963 -0.040298566
0.011012759 -0.17849097 0.030366423 -0.08706996 0.2507998 0.12530863 0.008201853 -0.033018075
-0.06496391 0.007633553 -0.13302526 -0.123975135 0.115003474 0.103119604 -0.045100465 0.07155255
0.07643673 -0.12655029 0.039630428 0.0739678 0.27653864 0.06352356 -0.09707063 -0.028047029
-0.32545853 -0.13613173 0.03013447 0.121796675 0.17714512 -0.24356309 0.12520371 -0.037131265
0.026058907 0.0738728 -0.14666598 -0.07303159 0.110070206 -0.22806162 0.04020003 -0.12665142
0.06462682 0.03661968 0.10347943 -0.020930266 -0.010977399 0.06643114 0.07135014 0.043540645
-0.03687989 -0.20288736 0.0022060352 -0.05014501 0.10855364 -0.06791708 0.078589216 0.0288871
-0.030464146 0.03699104 0.08060678 -0.050692707 0.07704537 0.018876642 0.029975386 0.028501589
0.04533978 -0.26787597 -0.00932975 -0.0042455867 0.10028402 -0.03640481 0.13554688 0.00024471982

arith.constant5 f4 [11]
00000000: 46f4 2e3c 24fe 503b 71bf 8abc 9f0a b03b
00000010: 7626 a6bb 783c 9fbc 78ea 073c 988c 343c
00000020: a71f 40bc 640b 78ba 317d ff3b
0.0106783565 0.003188976 -0.01693699 0.00537236 -0.005070503 -0.019438013 0.008295648 0.011019848
-0.0117262965 -0.00094621466 0.0077969064
